…
s=0.7, hsv_v=0.4, degrees=0.0, translate=0.1, scale=0.5, shear=0.0, perspective=0.0, flipud=0.0, fliplr=0.5, bgr=0.0, mosaic=1.0, mixup=0.0, copy_paste=0.0, copy_paste_mode=flip, auto_augment=randaugment, erasing=0.4, crop_fraction=1.0, cfg=None, tracker=botsort.yaml, channels=4, use_simotm=RGBT, brightness=0.2, pairs_rgb_ir=['visible', 'infrared'], save_dir=runs/LLVIP/LLVIP-yolo11n-RGBT-midfusion-6
Overriding model.yaml nc=80 with nc=1

                   from  n    params  module                                       arguments                     
  0                  -1  1         0  torch.nn.modules.linear.Identity             []                            
  1                   0  1         0  ultralytics.nn.modules.conv.SilenceChannel   [0, 3]                        
  2                  -1  1       464  ultralytics.nn.modules.conv.Conv             [3, 16, 3, 2]                 
  3                  -1  1      4672  ultralytics.nn.modules.conv.Conv             [16, 32, 3, 2]                
  4                  -1  1      6640  ultralytics.nn.modules.block.C3k2            [32, 64, 1, False, 0.25]      
  5                  -1  1     36992  ultralytics.nn.modules.conv.Conv             [64, 64, 3, 2]                
  6                  -1  1     26080  ultralytics.nn.modules.block.C3k2            [64, 128, 1, False, 0.25]     
  7                  -1  1    147712  ultralytics.nn.modules.conv.Conv             [128, 128, 3, 2]              
  8                  -1  1     87040  ultralytics.nn.modules.block.C3k2            [128, 128, 1, True]           
  9                  -1  1    295424  ultralytics.nn.modules.conv.Conv             [128, 256, 3, 2]              
 10                  -1  1    346112  ultralytics.nn.modules.block.C3k2            [256, 256, 1, True]           
 11                   0  1         0  ultralytics.nn.modules.conv.SilenceChannel   [3, 4]                        
 12                  -1  1       176  ultralytics.nn.modules.conv.Conv             [1, 16, 3, 2]                 
 13                  -1  1      4672  ultralytics.nn.modules.conv.Conv             [16, 32, 3, 2]                
 14                  -1  1      6640  ultralytics.nn.modules.block.C3k2            [32, 64, 1, False, 0.25]      
 15                  -1  1     36992  ultralytics.nn.modules.conv.Conv             [64, 64, 3, 2]                
 16                  -1  1     26080  ultralytics.nn.modules.block.C3k2            [64, 128, 1, False, 0.25]     
 17                  -1  1    147712  ultralytics.nn.modules.conv.Conv             [128, 128, 3, 2]              
 18                  -1  1     87040  ultralytics.nn.modules.block.C3k2            [128, 128, 1, True]           
 19                  -1  1    295424  ultralytics.nn.modules.conv.Conv             [128, 256, 3, 2]              
 20                  -1  1    346112  ultralytics.nn.modules.block.C3k2            [256, 256, 1, True]           
 21             [6, 16]  1         0  ultralytics.nn.modules.conv.Concat           [1]                           
 22             [8, 18]  1         0  ultralytics.nn.modules.conv.Concat           [1]                           
 23            [10, 20]  1         0  ultralytics.nn.modules.conv.Concat           [1]                           
 24                  -1  1    394240  ultralytics.nn.modules.block.SPPF            [512, 256, 5]                 
 25                  -1  1    249728  ultralytics.nn.modules.block.C2PSA           [256, 256, 1]                 
 26                  -1  1         0  torch.nn.modules.upsampling.Upsample         [None, 2, 'nearest']          
 27            [-1, 22]  1         0  ultralytics.nn.modules.conv.Concat           [1]                           
 28                  -1  1    127680  ultralytics.nn.modules.block.C3k2            [512, 128, 1, False]          
 29                  -1  1         0  torch.nn.modules.upsampling.Upsample         [None, 2, 'nearest']          
 30            [-1, 21]  1         0  ultralytics.nn.modules.conv.Concat           [1]                           
 31                  -1  1     40288  ultralytics.nn.modules.block.C3k2            [384, 64, 1, False]           
 32                  -1  1     36992  ultralytics.nn.modules.conv.Conv             [64, 64, 3, 2]                
 33            [-1, 28]  1         0  ultralytics.nn.modules.conv.Concat           [1]                           
 34                  -1  1     86720  ultralytics.nn.modules.block.C3k2            [192, 128, 1, False]          
 35                  -1  1    147712  ultralytics.nn.modules.conv.Conv             [128, 128, 3, 2]              
 36            [-1, 25]  1         0  ultralytics.nn.modules.conv.Concat           [1]                           
 37                  -1  1    378880  ultralytics.nn.modules.block.C3k2            [384, 256, 1, True]           
 38        [31, 34, 37]  1    430867  ultralytics.nn.modules.head.Detect           [1, [64, 128, 256]]           
YOLO11n-RGBT-midfusion summary: 436 layers, 3,795,091 parameters, 3,795,075 gradients, 9.50 GFLOPs

Freezing layer 'model.38.dfl.conv.weight'
[34m[1mAMP: [0mrunning Automatic Mixed Precision (AMP) checks...
[34m[1mAMP: [0mchecks passed ✅
[34m[1mtrain: [0mNew cache created: /apps/jhinno/JHdata/spooler/24021211734/datasets/LLVIP/visible/train.cache
[34m[1malbumentations: [0mBlur(p=0.01, blur_limit=(3, 7)), MedianBlur(p=0.01, blur_limit=(3, 7)), ToGray(p=0.01, num_output_channels=3, method='weighted_average'), CLAHE(p=0.01, clip_limit=(1.0, 4.0), tile_grid_size=(8, 8))
…
